alg_ba_transfer_model.pth (torch, 13204 bytes, 5 tensors)

model.0.weight f4 [64, 6]
0	0x3d9af9fc	0.07567212
1	0x3e917e21	0.2841654
2	0x3e9f2f97	0.31090996
3	0xbd85361d	-0.06504462
4	0x3e48cfa5	0.1961046
5	0x3dab65d6	0.08369033
6	0x3db4ab29	0.08821709
7	0x3e90ddc7	0.28294203
8	0x3ea6ee7a	0.32603818
9	0xbdf6619d	-0.12030337
10	0x3e113217	0.14179264
11	0x3d6cadba	0.057782866
12	0x3d5ee0f4	0.05441375
13	0x3e528339	0.2055787
14	0x3da3eb76	0.08003895
15	0xbd5db651	-0.05412895
16	0x3ded4d5f	0.11587023
17	0x3dd05c20	0.101738214
18	0x3d82eee8	0.06393224
19	0x3d909443	0.07059529
20	0x3e414612	0.18874386
21	0xbd9603af	-0.07324921
22	0x3e03928a	0.12848869
23	0x3d6d47ec	0.05792992
24	0x3d955df5	0.072933115
25	0x3dcbd94d	0.09953556
26	0x3e8d4479	0.27591303
27	0xbd3ba955	-0.045815784
28	0x3e027e10	0.12743402
29	0x3c539d78	0.012915961
30	0xbbdb9fec	-0.006702414
31	0x3d669656	0.056295715
32	0xbc060e0d	-0.008182061
33	0xbcf40b66	-0.029790591
34	0xbc934505	-0.017977247
35	0x3ca41474	0.020029284
36	0x3dc40c9a	0.09572716
37	0x3e35102e	0.17681953
38	0x3e75e897	0.24014507
39	0xbda521bf	-0.08063077
40	0x3e6a92c3	0.22907548
41	0x3d6ff87a	0.058586575
42	0xbc2a13fd	-0.010380742
43	0x3d397662	0.045278914
44	0x3cda7a67	0.026669694
45	0x3cc97d45	0.024595866
46	0x3c6b2d2a	0.01435403
47	0x3d2a4b5b	0.04157577
48	0xbc056d23	-0.008143696
49	0x3d386f19	0.045027826
50	0xbe181f5e	-0.14855716
51	0x3c41f5d8	0.011838399
52	0x3c42323d	0.011852798
53	0xbce254a3	-0.027628249
54	0xbc3fd716	-0.011708995
55	0xbd22a59d	-0.039708722
56	0x3d4b80da	0.04968343
57	0x3a8d2436	0.0010768238
58	0x3b5dea3d	0.003386154
59	0xbc317440	-0.010830939
60	0x3c179017	0.009250662
61	0xbbb8a734	-0.0056351665
62	0x3b2d1ef5	0.0026416157
63	0x3c5d2dce	0.01349969
64	0x3d28d54b	0.041219037
65	0xbd33ae39	-0.043867324
66	0xbc08619d	-0.008324054
67	0xbd9a732a	-0.07541497
68	0xbd015396	-0.031573854
69	0x3cc28be4	0.023748346
70	0x3d46171a	0.048361875
71	0xbc18cad9	-0.009325706
72	0x3c3eea0b	0.01165248
73	0xbd05a552	-0.032628365
74	0x3e12456a	0.14284292
75	0xbd8c47a7	-0.06849604
76	0xbd6cff3b	-0.057860594
77	0x3cf7f951	0.03027025
78	0xbc0da47e	-0.008645175
79	0x3b33a5be	0.0027412022
80	0x3d6e0d12	0.058117934
81	0x3aa2bdf0	0.0012416225
82	0x3d1c9a23	0.038232934
83	0x3d2707a9	0.04077879
84	0x3dbfd4a5	0.093667306
85	0xbdd6940b	-0.10477456
86	0xbea2d185	-0.31800476
87	0x3e78645c	0.24257034
88	0xbcc4a407	-0.024003996
89	0x3dcadf0d	0.09905825
90	0x3d709c97	0.058743086
91	0x3e615dd8	0.22008455
92	0x3e9f7162	0.31141192
93	0xbdb05024	-0.086090356
94	0x3e1a0aca	0.15043178
95	0x3cfab589	0.03060414
96	0x3d80d919	0.06291408
97	0x3d128635	0.03577252
98	0x3dfb66e5	0.12275485
99	0x3c0ef712	0.008725898
100	0x3cbe9d18	0.023268268
101	0x3d763657	0.060110416
102	0x3dbd6ad5	0.09248892
103	0x3e2ffabb	0.1718549
104	0x3ea3e31f	0.32009217
105	0xbdc73011	-0.09725965
106	0x3e66f44e	0.22554132
107	0x3c7b24db	0.015328611
108	0x3d8a40ab	0.06750616
109	0x3d9990ec	0.07498345
110	0x3a63546d	0.0008671943
111	0xbd3b4341	-0.045718435
112	0x3cd85bdf	0.026410995
113	0x3b92d439	0.0044808653
114	0x3bac0a8f	0.005250282
115	0x3c9807de	0.018558439
116	0x3d765bfe	0.060146324
117	0x3c306d9d	0.010768321
118	0xbd3e2b85	-0.046428222
119	0xbbf4d2e9	-0.0074714315
120	0x3c098668	0.008393861
121	0xbb34eb6a	-0.0027606138
122	0xbcba427e	-0.022736784
123	0xbce6e3a5	-0.028184721
124	0x3c992feb	0.018699607
125	0x3d004bad	0.03132217
126	0x3c94bfc8	0.018157855
127	0xbd6a5d1e	-0.05721771
128	0xbdaf52d1	-0.08560718
129	0x3c6e6b08	0.014551885
130	0x3d07c9a3	0.03315128
131	0xbcb98135	-0.022644619
132	0xbc96be4b	-0.018401286
133	0xbd3b7975	-0.045770127
134	0xbdff413c	-0.12463614
135	0xbb588e0c	-0.003304365
136	0x3c81161b	0.015757611
137	0x3d0ee481	0.034885887
138	0x3db1d59e	0.08683322
139	0x3d55efef	0.05223077
140	0xbc3ef6a2	-0.0116554815
141	0x3d0fae76	0.03507849
142	0x3ceecfe3	0.029151862
143	0x3d50e105	0.050995845
144	0xbc8d9927	-0.017284943
145	0xbd2a3d1e	-0.041562192
146	0xbd989e5d	-0.074520804
147	0xbce87354	-0.028375305
148	0xbd26ab04	-0.040690437
149	0xbc7f8fe1	-0.015598268
150	0x3d88f351	0.06687034
151	0x3e8cd206	0.27503985
152	0x3eaf832d	0.34279767
153	0xbd04cdd2	-0.032422848
154	0x3e8398c5	0.2570249
155	0x3d3db734	0.046317294
156	0xbc0a8ce1	-0.00845644
157	0x3d822e93	0.063565396
158	0xbd887263	-0.066624425
159	0xbcd76af9	-0.026296126
160	0xbd1b112f	-0.037858184
161	0x3c54d249	0.012989589
162	0x3c59fdad	0.01330511
163	0x3d7aa65f	0.06119382
164	0xbd9b9ff0	-0.07598865
165	0xbc0ea332	-0.008705901
166	0x3d3689ce	0.044565015
167	0xbb2bfe59	-0.0026244132
168	0x3d6196a1	0.05507529
169	0x3e3a893f	0.18216418
170	0x3d78fdb0	0.06078881
171	0xbd2882c1	-0.04114032
172	0x3dbbda81	0.09172536
173	0x3c7f23e4	0.015572522
174	0xbc96c072	-0.018402312
175	0x3d6de022	0.058075078
176	0xbd91d2df	-0.071202986
177	0x3c9a667c	0.018847696
178	0xbd0e09c7	-0.034677293
179	0x3d2a5078	0.041580647
180	0x3c70e72f	0.014703556
181	0x3c79bbc7	0.0152425235
182	0xbd3f9ca7	-0.046780255
183	0x3ddf14af	0.10892617
184	0x3aa882b1	0.0012856332
185	0x3d1e91d7	0.038713302
186	0x3d65ba3f	0.05608582
187	0x3e4da500	0.20082474
188	0x3e7484e5	0.2387882
189	0xbcf85817	-0.030315442
190	0x3dc06501	0.09394265
191	0x3cf72da1	0.030173125
192	0xbadd59be	-0.0016887707
193	0x3d9dbc70	0.07701957
194	0x3c8fc5a0	0.01755029
195	0x3cb269d1	0.021778973
196	0xbd3307e7	-0.043708708
197	0xbd10282c	-0.03519456
198	0x3d8ba142	0.06817867
199	0x3e04be8b	0.12963311
200	0x3c994c42	0.01871312
201	0xbd4dec68	-0.050274283
202	0x3d4c2fbb	0.049850207
203	0x3d71b3c7	0.05900934
204	0x3da505a1	0.08057714
205	0x3dad3d6e	0.084589824
206	0xbdd4dc66	-0.103936
207	0x3d861c86	0.06548409
208	0x3d814ce2	0.06313492
209	0x3d387dd9	0.045041893
210	0x3c1e0cc4	0.009646598
211	0x3d083f48	0.033263475
212	0xbd828710	-0.063734174
213	0xbcb5ddeb	-0.022200545
214	0xbc3f58fb	-0.011678929
215	0x3ca89633	0.020579433
216	0xbc334baa	-0.010943333
217	0x3d3e7dcc	0.046506688
218	0xbcd5d542	-0.026102666
219	0xbccefd93	-0.025267398
220	0xbd3087db	-0.043098312
221	0x3d3d450e	0.046208434
222	0x3c83a65f	0.016070543
223	0x3d9002a1	0.070317514
224	0xbcba178b	-0.022716304
225	0x3c940da3	0.018072909
226	0xbd43edbc	-0.047834143
227	0x3c576209	0.013145932
228	0x3da1d6f5	0.07902328
229	0x3e0fd142	0.1404467
230	0x3cc49e89	0.024001377
231	0xbc90938f	-0.017648486
232	0x3e1d4d67	0.15361558
233	0x3dc90058	0.09814519
234	0x3b26de72	0.0025462178
235	0xbd426772	-0.047461934
236	0xbe1a4fbd	-0.1506948
237	0x3ce554bc	0.027994506
238	0xbd4a5e39	-0.049406264
239	0xbbbb1a57	-0.005709927
240	0x3c1969df	0.009363621
241	0x3d9835c1	0.07432128
242	0xbdce7433	-0.10080757
243	0x3c84a2c9	0.016190903
244	0x3d14a0d1	0.03628618
245	0xbb774e25	-0.0037735787
246	0x3c72676d	0.014795166
247	0xbec41fb2	-0.38305432
248	0x3e1aa5d1	0.15102316
249	0x3e4bfd45	0.19920833
250	0xbe60cb78	-0.21952617
251	0x3e0c70d0	0.1371491
252	0xbc1f1d9e	-0.009711651
253	0xbcbe4bd4	-0.023229517
254	0x3dbb039d	0.091315486
255	0x3d0033b1	0.031299297

model.0.bias f4 [64]
0	0xbd76cf20	-0.060256124
1	0x3ca967e3	0.02067942
2	0x3ea4334f	0.32070395
3	0x3ea4c524	0.32181656
4	0x3e9128fc	0.2835158
5	0xbeaba85f	-0.33526894
6	0xbcd195b2	-0.025584076
7	0xbe9cebfe	-0.30648798
8	0xbe6042e6	-0.2190052
9	0xbd5d3190	-0.054002345
10	0xbddef830	-0.10887182
11	0xbebbe169	-0.36695412
12	0x3ea45b8d	0.32101098
13	0xbea67be8	-0.32516408
14	0x3e9cf1e5	0.306533
15	0xbc050769	-0.0081194425
16	0x3eacc24e	0.33741993
17	0xbcef847f	-0.029237984
18	0x3e82fbb5	0.25582662
19	0xbe50ec27	-0.20402585
20	0xbea8d4dc	-0.329749
21	0xbe186302	-0.14881518
22	0xbeb876d4	-0.3602816
23	0x3ed4b986	0.41547793
24	0xbe0677fe	-0.13131711
25	0xbd8ca91e	-0.06868194
26	0xbeacd7dc	-0.33758438
27	0xbdbb9b6c	-0.09160504
28	0x3eb2567c	0.34831607
29	0xbe8f4a09	-0.27986172
30	0x3edce12c	0.43140543
31	0x3ea94f32	0.33068234
32	0xbe47239d	-0.19447179
33	0x3e879887	0.26483557
34	0x3edda931	0.43293145
35	0xbe347a3a	-0.1762475
36	0xbe5518cb	-0.20810239
37	0xbe4db193	-0.2008727
38	0x3e9d5768	0.30730748
39	0xbe8c580a	-0.27410918
40	0xbe030690	-0.12795472
41	0x3db844a5	0.08997468
42	0xbe941f86	-0.289303
43	0xbd708c53	-0.058727574
44	0xbd11a828	-0.035560757
45	0xbeaf1c00	-0.3420105
46	0xbd74b879	-0.05974624
47	0x3ea9b096	0.33142537
48	0xbe957c92	-0.29196602
49	0xbeb73f76	-0.35790604
50	0x3e9c4341	0.3052006
51	0x3de41b4a	0.111380175
52	0xbe841828	-0.2579968
53	0x3e8b7876	0.27240342
54	0xbe29e310	-0.16590524
55	0x3ec968d9	0.39337805
56	0x3eb2aaf2	0.34896046
57	0x3e9a4af1	0.301353
58	0x3ecb1aaf	0.39668795
59	0xbce60cb6	-0.028082233
60	0xbea74e2c	-0.32676828
61	0xbe21f8f0	-0.15817618
62	0x3e08c4c8	0.13356316
63	0x3ea3175e	0.31853765

model.3.weight f4 [32, 64]
0	0x3c6d048e	0.014466418
1	0xbe08b0b8	-0.13348663
2	0x3d5e5864	0.054283515
3	0xbd2e5306	-0.042559646
4	0x3d936c5a	0.07198401
5	0xbdbae4f0	-0.091256976
6	0xbdef5e35	-0.116878904
7	0xbc9bfa68	-0.019040301
8	0x3c18b580	0.009320617
9	0xbcf1fcc8	-0.02953948
10	0xbd21047c	-0.039310917
11	0x3d1f3744	0.038871065
12	0x3d5b7363	0.05357684
13	0x3bb0af80	0.005392015
14	0x3e176d67	0.14787827
15	0xbd6fbc27	-0.058529045
16	0xbd95d692	-0.07316317
17	0x3d22ee8e	0.039778285
18	0xbd8d2c69	-0.06893236
19	0x3dd258c4	0.10270837
20	0xbc815428	-0.0157872
21	0xbde1c338	-0.11023563
22	0x3dfc023a	0.12305112
23	0x3e1114b5	0.14168055
24	0x3ded7714	0.11594978
25	0x3c870f5b	0.016486814
26	0xbdbc08e2	-0.09181382
27	0x3d86b890	0.06578171
28	0xbd93a74b	-0.07209643
29	0xbdcb8c88	-0.099389136
30	0x3d42cdc5	0.04755952
31	0xbd0c3afa	-0.034235932
32	0x3d534248	0.051576883
33	0xbdb18fd1	-0.08670009
34	0x3e1f7a10	0.15573907
35	0x3da19aa2	0.07890822
36	0x3d39eaa0	0.04538977
37	0xbd4b6808	-0.04965976
38	0xbd89e0ac	-0.06732306
39	0xbde55126	-0.111971185
40	0x3da2ec9e	0.079552874
41	0x3e333c2d	0.17503424
42	0xbd8b8626	-0.06812696
43	0x3bfc95ea	0.007708301
44	0xbd206594	-0.039159372
45	0x3dcfd31a	0.10147686
46	0x3c820ca7	0.015875174
47	0xbd17d0b6	-0.037064277
48	0xbdb284e8	-0.08716756
49	0x3d51bbec	0.051204607
50	0xbc80f5aa	-0.015742142
51	0x3ddcd466	0.10782699
52	0x3d2218e4	0.03957452
53	0x3e3a290b	0.18179719
54	0xbd4eb308	-0.050463706
55	0xbd492f3a	-0.049117304
56	0x3d81d6fd	0.06339834
57	0x3e1d2017	0.15344273
58	0x3d5167cf	0.05112439
59	0x3cea9ee3	0.028640216
60	0x3defcafe	0.117086396
61	0x3dae4318	0.08508891
62	0x3cf4406a	0.029815871
63	0x3de76e88	0.11300379
64	0xbe581794	-0.21102744
65	0xbd71103a	-0.058853365
66	0x3db9dcb1	0.09075297
67	0x3da6de8a	0.08147915
68	0x3c2f7ce2	0.010710927
69	0xbde0a37c	-0.10968682
70	0xbd0be0dc	-0.03414999
71	0x3ca45ef0	0.020064801
72	0xbd3e75a4	-0.04649891
73	0xbd176494	-0.036961153
74	0xbd89f928	-0.06736976
75	0x3d737b70	0.05944389
76	0x3da03479	0.07822508
77	0xbd078b90	-0.03309208
78	0x3e6b8780	0.23000908
79	0xbe700082	-0.23437694
80	0x3c5ce7cf	0.013483002
81	0xbdf09f50	-0.117491364
82	0x3e3babeb	0.183273
83	0x3d04c1a0	0.032411218
84	0xbdad4542	-0.084604755
85	0xbc2469d0	-0.010034993
86	0xbce9cbc0	-0.028539538
87	0x3e39e9c2	0.18155578
88	0xbd9033f0	-0.07041156
89	0xbea12d1e	-0.31479734
90	0x3de10626	0.10987501
91	0xbdb08570	-0.08619201
92	0x3dd7318e	0.10507499
93	0x3c7c0300	0.015381575
94	0x3df00c7e	0.11721133
95	0x3c567a6a	0.013090709
96	0xbdbc931c	-0.092077464
97	0xbc11de7c	-0.008903142
98	0x3e82af36	0.255243
99	0x3d33edbc	0.043927893
100	0x3dc96b0c	0.09834871
101	0x3dd93ea4	0.10607651
102	0x3da74916	0.08168237
103	0xbd1f3ff8	-0.038879365
104	0x3d2818e0	0.041039348
105	0x3ddba596	0.107249424
106	0x3da63196	0.081149265
107	0xbe8fdeda	-0.2809971
108	0xbdc51777	-0.09623616
109	0x3ac0dd80	0.001471445
110	0xbd0976d4	-0.03356059
111	0x3ce5767f	0.028010605
112	0xbbffb4e0	-0.0078035444
113	0xbd7bd454	-0.06148179
114	0x3d7a65d9	0.061132286
115	0xbd389016	-0.045059286
116	0x3c7af230	0.015316531
117	0x3e2220c0	0.15832806
118	0xbceecd60	-0.029150665
119	0xbd27d865	-0.040977854
120	0x3e0e12b9	0.1387433
121	0x3e3f7390	0.18696427
122	0x3e7fe8d8	0.24991167
123	0xbe769999	-0.2408203
124	0x3d0df4f8	0.03465745
125	0x3dc58d40	0.09646082
126	0x3cb7258d	0.022356773
127	0x3ddbcd20	0.10732484
128	0x3e8ba099	0.27270964
129	0x3e28fe4e	0.1650326
130	0xbd759f31	-0.05996627
131	0x3dbf4a3a	0.093403295
132	0x3db36cc2	0.08760978
133	0xbd9e0984	-0.07716659
134	0x3e40fa56	0.18845496
135	0x3d91646c	0.07099232
136	0xbda7a99c	-0.08186647
137	0xbb8b21c0	-0.0042459667
138	0x3b22eb80	0.0024859607
139	0x3dde56d8	0.10856408
140	0x3ce0febc	0.027465217
141	0xbdfb32ac	-0.12265524
142	0xbe7d2b49	-0.24723543
143	0x3b407422	0.0029366096
144	0x3e0945bb	0.13405506
145	0x3e8c406d	0.27392903
146	0x3d4fcb62	0.05073107
147	0x3c03c680	0.008042932
148	0x3c9f9350	0.019479424
149	0xbdf63692	-0.12022127
150	0x3d9c256a	0.07624324
151	0xbdae04eb	-0.08497032
152	0xbc86fe30	-0.016478628
153	0x3e364254	0.1779874
154	0xbd984d72	-0.074366465
155	0xbdc302f8	-0.095220506
156	0xbc9fb267	-0.019494249
157	0xbdf84584	-0.12122634
158	0x3c6472cd	0.013943386
159	0x3df2ccd0	0.11855471
160	0x3d045efc	0.032317147
161	0x3e097350	0.13422894
162	0x3d2f7859	0.04283938
163	0x3d590e78	0.052992314
164	0x3d271eac	0.040800735
165	0x3d5b80c0	0.053589582
166	0x3e09721d	0.13422437
167	0xbda1c6fe	-0.07899283
168	0xbccf3b28	-0.025296763
169	0xbe40ead7	-0.18839584
170	0x3dfc7e82	0.12328817
171	0x3e48573c	0.19564527
172	0x3e3335e8	0.17501032
173	0xbdd248ee	-0.102678165
174	0x3db944ce	0.090463266
175	0x3e07621f	0.13221024
176	0xbd522098	-0.051300615
177	0x3c262010	0.01013948
178	0x3dcb722e	0.099338874
179	0x3db94073	0.09045496
180	0xbdd5adf8	-0.104335725
181	0x3d45773c	0.048209414
182	0x3d174ae0	0.03693664
183	0xbd82e321	-0.06390978
184	0xbdc999da	-0.09843798
185	0x3d045661	0.03230894
186	0x3dafbf86	0.08581452
187	0x3e8d4f11	0.27599385
188	0xbda6484a	-0.08119257
189	0xbda325ce	-0.07966195
190	0x3e1a33d3	0.15058832
191	0xbd9c6fcc	-0.07638511
192	0xbd565175	-0.052323777
193	0xbdcbcee9	-0.09951574
194	0x3d885ea8	0.06658679
195	0xbdf2a4af	-0.11847817
196	0x3deab4c7	0.11460262
197	0x3c95f618	0.018305823
198	0xbdd3b3b5	-0.10337011
199	0x3def775e	0.11692689
200	0xbdbc3b30	-0.091909766
201	0xbdc09e4c	-0.09405193
202	0x3ccfe018	0.02537541
203	0xbd9e5ee8	-0.07732946
204	0xbc7dc259	-0.015488231
205	0x3b67a840	0.0035348088
206	0x3db967f9	0.09053034
207	0x3d4bd208	0.04976085
208	0x3dde6a81	0.10860158
209	0xbd90af57	-0.070646934
210	0xbd9c59b9	-0.07634301
211	0xbdd4c352	-0.10388817
212	0xbdfe00f0	-0.124025226
213	0xbd8b3696	-0.06797521
214	0x3daf7580	0.08567333
215	0x3e0e6574	0.13905889
216	0xbd82a220	-0.06378579
217	0xbdd0581a	-0.10173054
218	0x3bf73240	0.007543832
219	0xbd0a72dc	-0.033800945
220	0xbdb8b7f8	-0.09019464
221	0xbdcdcf6e	-0.1004933
222	0x3dd0fa10	0.10203946
223	0x3d1e5216	0.038652502
224	0xbdf6828a	-0.12036617
225	0xbd141c37	-0.03615972
226	0xbc8735f1	-0.016505213
227	0xbcea0078	-0.028564677
228	0x3d61b570	0.055104673
229	0x3bffe0c0	0.0078087747
230	0x3dfc4b75	0.1231908
231	0xbc8d2038	-0.017227277
232	0x3dca35e0	0.09873557
233	0x3e0097af	0.12557863
234	0x3ca15560	0.01969403
235	0xbe041568	-0.12898791
236	0xbcc6ecac	-0.024282776
237	0x3da517da	0.0806119
238	0xbd34a450	-0.044102013
239	0xbd22e174	-0.03976579
240	0xbdf0a7b0	-0.11750734
241	0x3b143980	0.002261728
242	0xbdc9a6e2	-0.098462835
243	0x3dc5dd46	0.09661345
244	0x3d831380	0.06400204
245	0x3deb5f15	0.11492745
246	0x3d6b6b64	0.057475463
247	0x3dc274c8	0.094949305
248	0x3dfc4ad7	0.12318962
249	0x3ddbb83e	0.10728501
250	0x3dafb2e9	0.08579046
251	0x3dbb83f4	0.091560274
252	0xbdd53014	-0.10409561
253	0xbc3875b0	-0.011258528
254	0x3e030e8b	0.12798516
255	0x3d9434a0	0.072366

model.3.bias f4 [32]
0	0x3d73e294	0.059542254
1	0x3e537b49	0.20652498
2	0x3d9c1c41	0.076225765
3	0xbde34cbe	-0.11098622
4	0xbc113a68	-0.008864023
5	0xbca49060	-0.020088375
6	0xbdbf1d83	-0.09331801
7	0xbdc61c28	-0.09673339
8	0xbd5957c6	-0.053062223
9	0xbddb8d1c	-0.10720274
10	0xbd732560	-0.059361815
11	0x3dc97672	0.09837045
12	0xbd0ae623	-0.03391088
13	0xbd27f252	-0.04100258
14	0xbc2a2a2a	-0.010386029
15	0x3df51835	0.11967508
16	0x3d65a046	0.05606105
17	0x3c92b916	0.017910521
18	0x3dc484b9	0.09595627
19	0x3e462be9	0.19352688
20	0xbd97a1cb	-0.074039064
21	0xbe01fd6b	-0.12694328
22	0x3d5da432	0.054111667
23	0x3d8340b1	0.06408823
24	0xbe0fdab8	-0.14048278
25	0xbe0eb25f	-0.1393523
26	0xbdd64d38	-0.10463947
27	0x3cc3e6bc	0.023913734
28	0x3cdf9eee	0.027297463
29	0xbdd39cb4	-0.10332623
30	0x3d0d15a5	0.03444447
31	0xbdfcbf09	-0.123411246

model.5.weight f4 [1, 32]
0	0x3daac8c5	0.08339075
1	0x3ed812ea	0.4220193
2	0xbe03224f	-0.12806056
3	0x3e175b3e	0.147809
4	0x3ec1f1a8	0.37879682
5	0xbe652697	-0.22378002
6	0x3cebdd51	0.028792055
7	0x3d90ef0e	0.07076846
8	0xbbf7d6ea	-0.0075634615
9	0xbe07a853	-0.13247804
10	0xbe883605	-0.26603714
11	0xbdfd3a74	-0.12364665
12	0x3df256a2	0.1183293
13	0xbe7352b4	-0.23762017
14	0xbdbf8125	-0.09350804
15	0xbe462f91	-0.19354083
16	0xbe393b31	-0.18088986
17	0xbe9ea38e	-0.30984157
18	0xbe5e841f	-0.21730088
19	0x3eeb44a7	0.45950815
20	0xbe301e8b	-0.17199151
21	0x3d84b1ce	0.06479226
22	0x3d436e8d	0.04771285
23	0x3b2cac4f	0.002634782
24	0xbec478bb	-0.3837336
25	0xbe9f55f0	-0.31120253
26	0x3dc4ad81	0.09603406
27	0xbe1909d1	-0.14945151
28	0xbe045d42	-0.129262
29	0xbe7bb5fd	-0.24581142
30	0xbe08da17	-0.13364445
31	0x3d79418b	0.060853522
